game-ai/tictactoe_model.pth (torch, 78424 bytes, 6 tensors)

fc1.weight f4 [128, 9]
000000 31 a9 e7 bf 4f c0 2f c0 17 65 c9 41 c0 ed 33 3e
       -1.8098508 -2.7461126 25.17436 0.17571163
000010 11 4c f3 bf b6 81 06 c0 ac dc 31 c0 e6 7f 92 be
       -1.9007589 -2.101667 -2.7790937 -0.28613204
000020 ba e6 0e c0 d4 fb d8 bf 6c 4b 25 c0 ec 00 cb 41
       -2.2328324 -1.6951852 -2.5827284 25.37545
000030 4b 59 47 3e f1 fe eb bf e1 1e 27 c0 e0 df 23 c0
       0.19467656 -1.8437177 -2.6112597 -2.5605392
000040 9b aa 59 be 63 01 0d c0 f7 13 fa bf d0 e0 08 c0
       -0.21256487 -2.2032096 -1.9537343 -2.1387215
000050 b0 05 ca 41 5a 31 3c be 47 71 b4 bf c2 3f 04 c0
       25.252777 -0.18378201 -1.409707 -2.0663915
000060 0d 4f 23 c0 16 44 13 be b6 bd 0e c0 b6 3d de bf
       -2.5516999 -0.14381441 -2.230329 -1.7362583
000070 d0 91 11 c0 fa 6d ca 41 2c 5f d2 3e 4c bd bd bf
       -2.2745247 25.3037 0.41088235 -1.4823394
000080 13 40 10 c0 68 8d 40 c0 fd 5d 1b bd 5a 08 0f c0
       -2.2539108 -3.0086308 -0.03793143 -2.2348847
000090 d9 3f 0c c0 f5 31 16 c0 40 a6 ca 41 7a 6c 38 3d
       -2.191397 -2.3467991 25.331177 0.045025326
0000a0 98 5a fd bf 23 ce 26 c0 00 42 24 c0 03 3e 4a bd
       -1.9793272 -2.6063316 -2.5665283 -0.049375545
0000b0 dc 00 e8 bf 4e 7e ec bf 5a c4 10 c0 20 71 c9 41
       -1.8125262 -1.8476045 -2.2619843 25.180237
0000c0 b9 e8 57 be e1 e3 cb bf ea fe 28 c0 0a ca 40 c0
       -0.2108487 -1.5928918 -2.6405587 -3.0123315
0000d0 98 f4 cc 3d 9b a2 f8 bf b1 04 c9 bf e4 52 26 c0
       0.1000759 -1.9424623 -1.5704557 -2.5988092
0000e0 67 0d c8 41 9c be 8c 3e ea 1a c9 bf 57 f8 0e c0
       25.006544 0.27489173 -1.5711339 -2.2339075
0000f0 ae df 18 c0 f4 86 63 3d af 76 f4 bf a3 a4 e5 bf
       -2.3886523 0.055548623 -1.9098719 -1.7940868
000100 4d 4f 1a c0 f5 c8 c9 41 de 41 57 be 09 40 d9 bf
       -2.4110901 25.223124 -0.2102122 -1.6972667
000110 9b d9 0d c0 5d f1 2f c0 99 31 95 3e 38 c1 0c c0
       -2.2164066 -2.7491066 0.29139403 -2.1992931
000120 63 a8 73 be 78 e0 94 be e6 27 f8 be 72 d6 33 be
       -0.23794703 -0.29077506 -0.4846794 -0.17562273
000130 ab 3e 6e be 40 36 5a 3f b0 25 5d be 13 74 78 be
       -0.23266093 0.8523903 -0.21596408 -0.24263029
000140 94 dc 64 3f a6 56 d5 bf 39 1c 0e c0 55 60 ca 41
       0.89399076 -1.6667068 -2.2204726 25.297037
000150 0d 88 b6 3e d8 3e c7 bf 71 6d 1d c0 38 fd 27 c0
       0.35650674 -1.5566053 -2.4598048 -2.6248302
000160 81 d8 3d 3e 31 d3 d8 bf 93 5c f2 bf 79 e3 28 c0
       0.18539621 -1.693945 -1.8934501 -2.6388838
000170 cb 8b c9 41 8a 1d 06 3e 23 16 cb bf 08 da 28 c0
       25.193258 0.13097206 -1.586613 -2.6383076
000180 b2 92 15 c0 97 56 54 3e bf fe d6 bf 42 4b e8 bf
       -2.3370786 0.20736156 -1.6796492 -1.8147967
000190 6d 44 09 c0 78 73 c9 41 c1 35 dc bd 8a 74 e4 bf
       -2.1448014 25.181381 -0.1075244 -1.7848065
0001a0 3d 82 0a c0 25 98 25 c0 57 b6 b8 bd a8 06 de bf
       -2.164199 -2.5874112 -0.090191536 -1.7345781
0001b0 4e 59 07 c0 c6 07 23 c0 99 17 c9 41 e5 71 a7 3e
       -2.1148257 -2.5473495 25.136522 0.32704082
0001c0 ae 09 ba bf ca 96 29 c0 ab 1a 19 c0 cd b8 c8 3d
       -1.4534204 -2.6498284 -2.3922527 0.09800873
0001d0 1c 90 fb bf b5 df 0c c0 03 d9 21 c0 a6 d5 c6 41
       -1.9653354 -2.201154 -2.5288703 24.85432
0001e0 fd f3 27 be 1e 05 e0 bf 19 cb 20 c0 bb 2e 3a c0
       -0.16401668 -1.7501562 -2.512396 -2.9091022
0001f0 45 11 74 bd a0 3e d5 bf 0f 9f dd bf 76 a0 05 c0
       -0.059586782 -1.6659737 -1.7314166 -2.0879188
000200 f1 ee c9 41 06 c6 65 bc 6a bd c1 bf 0c 17 07 c0
       25.24167 -0.014024263 -1.513593 -2.1107817
000210 49 a2 3e c0 b4 86 95 3e 6d 36 ff bf db 58 c5 bf
       -2.978655 0.29204333 -1.9938484 -1.5417742
000220 4c f6 15 c0 69 46 c6 41 00 0a 91 3e 92 e5 b4 bf
       -2.3431578 24.78438 0.28327942 -1.4132559
000230 d0 8e 23 c0 76 4a 18 c0 3a 5f 37 be 57 b2 e4 bf
       -2.5555916 -2.3795447 -0.1790742 -1.7866925
000240 20 32 d2 bf b6 4a 23 c0 da b4 c8 41 48 e7 e4 3e
       -1.6421547 -2.551435 25.088306 0.44707704
000250 49 70 c3 bf 47 64 27 c0 03 5a 1c c0 ac 3b 41 3e
       -1.5268642 -2.6154954 -2.4429939 0.1887042
000260 49 0e d0 bf e5 e4 fb bf 28 e1 10 c0 82 94 c9 41
       -1.625436 -1.9679228 -2.2637424 25.197514
000270 f0 85 92 3e 19 cb eb bf e4 02 1a c0 4e d7 1d c0
       0.2861781 -1.8421355 -2.4064264 -2.4662662
000280 f3 ae 94 3d 5e 17 d7 bf c4 2a 10 c0 32 9c 0a c0
       0.072599314 -1.6804006 -2.2526102 -2.1657834
000290 dc 8d ca 41 a4 60 ff 3d 35 a0 bb bf 5b 19 14 c0
       25.319267 0.124696046 -1.4658266 -2.3140476
0002a0 79 3c 22 c0 d5 d2 de bd da 25 10 c0 59 dc f0 bf
       -2.534941 -0.10880057 -2.2523103 -1.8817245
0002b0 3c 5c 18 c0 0e d8 c7 41 71 33 4d be 31 ab d4 bf
       -2.3806295 24.980495 -0.20039155 -1.6614743
0002c0 df 88 0c c0 b1 87 2b c0 4e 33 1b bd b3 58 0e c0
       -2.195854 -2.680157 -0.037890725 -2.2241638
0002d0 ae d5 06 c0 f4 09 26 c0 19 7f c5 41 4e 8a 32 be
       -2.106792 -2.5943575 24.68706 -0.17435572
0002e0 3f 87 dd bf 49 ff 23 c0 03 11 17 c0 62 70 5b be
       -1.7306899 -2.5624564 -2.3604133 -0.2142959
0002f0 53 e2 11 c0 3d a7 0f c0 e7 cf 1b c0 ca f7 c7 41
       -2.2794387 -2.2445824 -2.4345644 24.99599
000300 74 66 13 be 1d 3a c2 bf ed 5c 03 c0 f8 94 3b c0
       -0.14394552 -1.5173985 -2.0525467 -2.9309673
000310 8a 93 d5 3d 9f a8 df bf 4d c4 d4 bf 9e 0f 16 c0
       0.104285315 -1.7473334 -1.6622406 -2.3447032
000320 5a 28 c4 41 4b e0 0c be 97 b5 a9 bf e9 f8 0a c0
       24.519703 -0.13757436 -1.3258542 -2.1714423
000330 76 56 1e c0 64 5f c6 bc 8f 7f f6 bf d1 cd 04 c0
       -2.4740272 -0.024215408 -1.9257678 -2.075062
000340 b5 57 13 c0 cb f5 c7 41 40 02 f2 3e 31 05 dd bf
       -2.3022282 24.995016 0.47267342 -1.7267209
000350 0d 25 19 c0 e5 7f 26 c0 8f 2b b3 3e 18 5b c6 bf
       -2.3928864 -2.601556 0.3499417 -1.549655
000360 1c 2a 0d c0 67 67 08 c0 dc 86 c9 41 51 be 82 3d
       -2.2056952 -2.1313112 25.19085 0.06383956
000370 2e d4 b3 bf d4 8f 0b c0 5e a1 2c c0 88 c9 85 3e
       -1.4049127 -2.1806536 -2.697349 0.2613032
000380 3f 94 f9 bf e1 98 dd bf ad f7 1f c0 4d 5e c9 41
       -1.9498366 -1.731228 -2.499492 25.171045
000390 00 71 40 be 23 47 ff bf cd 51 26 c0 57 54 24 c0
       -0.18793106 -1.9943584 -2.5987427 -2.5676477
0003a0 65 d3 95 3d a7 2a 12 c0 cb f2 0c c0 8a be 11 c0
       0.07315711 -2.2838533 -2.202319 -2.2772546
0003b0 1e ed c1 41 76 83 c0 bd 7c b7 e2 bf 97 a6 ed bf
       24.24078 -0.09400074 -1.7712245 -1.8566464
0003c0 e8 8e 2a c0 6c 0a c6 3e 3f 2c d8 bf c8 62 d9 bf
       -2.6649723 0.38679826 -1.6888503 -1.6983271
0003d0 47 2a 1e c0 2e 48 ca 41 6e 40 a9 3e ca 98 af bf
       -2.4713304 25.285244 0.33056968 -1.3718503
0003e0 6a 30 20 c0 01 e0 2c c0 ab 82 08 be 26 bd 03 c0
       -2.502955 -2.701172 -0.13331096 -2.0584197
0003f0 9b c1 ce bf aa de 17 c0 30 f5 c7 41 11 65 ee 3e
       -1.6152834 -2.3729653 24.99472 0.46561483

fc1.bias f4 [128]
000000 30 84 e9 41 71 25 eb 41 c7 3c ee 41 6b f1 ea 41
       29.189545 29.393282 29.779676 29.36788
000010 da 0e ee 41 29 86 eb 41 4d 9c ec 41 2e 38 ec 41
       29.757252 29.440508 29.576319 29.527431
000020 ca b2 37 bf d5 e6 ee 41 7f fa ea 41 e9 d7 ed 41
       -0.71757185 29.86271 29.372313 29.730425
000030 ce 30 ed 41 21 6b ee 41 df 6c ee 41 ac 89 e7 41
       29.64883 29.802309 29.80316 28.942223
000040 e4 9e ea 41 07 fc ea 41 d6 59 ed 41 e2 e2 e9 41
       29.327583 29.37306 29.668865 29.235783
000050 9e d8 ee 41 21 6b e9 41 4a 1c e9 41 cf 9c e8 41
       29.85577 29.177309 29.138813 29.076567
000060 7e fe ed 41 88 ce ed 41 a5 53 e8 41 a5 29 eb 41
       29.749264 29.725845 29.040842 29.395334
000070 0b ba ee 41 e9 00 ef 41 07 b2 ee 41 bc e4 4a bf
       29.840841 29.875444 29.836927 -0.7925527
000080 6c aa ed 41 b1 37 ed 41 aa 0d ed 41 ad 0f eb 41
       29.708214 29.652193 29.631672 29.382654
000090 f2 80 ea 41 31 c4 ee 41 f2 85 ec 41 84 97 ec 41
       29.312962 29.845797 29.565403 29.573982
0000a0 0f a6 e8 41 0e 23 ec 41 a4 67 ee 41 6c ab ec 41
       29.081083 29.517117 29.800606 29.583702
0000b0 7a 32 e6 41 18 78 ef 41 d7 ff 2c bf 1f 5b 46 bf
       28.774647 29.93364 -0.6757788 -0.7748279
0000c0 e0 76 ec 41 8e a8 eb 41 48 ef ee 41 57 f9 ea 41
       29.558044 29.457302 29.866837 29.371748
0000d0 ed 55 e8 41 12 03 ed 41 21 ed eb 41 2b b9 ec 41
       29.041956 29.6265 29.490786 29.590414
0000e0 88 8d ed 41 52 b2 ed 41 4d c6 ec 41 66 96 ee 41
       29.694107 29.71207 29.596827 29.823437
0000f0 b3 a2 4c bf ec ae e9 41 c7 0b ee 41 0b e6 ee 41
       -0.7993576 29.210411 29.75575 29.862326
000100 00 85 eb 41 39 db eb 41 b5 f4 ec 41 11 6d ee 41
       29.439941 29.482042 29.619486 29.803255
000110 7d 71 ec 41 1b 8f ea 41 97 3a ef 41 7f 04 ef 41
       29.555414 29.319876 29.903608 29.877195
000120 53 b1 e9 41 88 83 ea 41 cd e5 eb 41 28 e3 e9 41
       29.211584 29.314224 29.487207 29.235916
000130 7c c4 ed 41 93 c6 ed 41 0b 5a e5 41 45 09 ee 41
       29.72094 29.72196 28.668966 29.754526
000140 37 16 ea 41 00 91 ec 41 7a 3a ef 41 15 55 e8 41
       29.260847 29.5708 29.903553 29.041544
000150 28 ea ed 41 e3 3b ed 41 b1 b2 ed 41 36 09 ef 41
       29.739334 29.654242 29.712252 29.879498
000160 4d 15 ec 41 b3 9c e8 41 18 07 e7 41 9f 5f ee 41
       29.5104 29.076513 28.878464 29.79669
000170 ee a8 ea 41 97 f8 ec 41 96 bb ee 41 cd 81 ed 41
       29.332485 29.621382 29.841595 29.68838
000180 e8 1c e8 41 39 0a eb 41 fd cd ee 41 5f 77 e8 41
       29.014114 29.379992 29.85058 29.058287
000190 69 74 ed 41 d7 76 e9 41 e5 45 ee 41 25 4a ed 41
       29.68184 29.183027 29.784128 29.661203
0001a0 43 82 e3 41 64 04 eb 41 19 f0 ed 41 a6 d3 ed 41
       28.438604 29.377144 29.742235 29.728344
0001b0 42 52 e6 41 32 43 ef 41 ce a0 ee 41 55 2f 50 bf
       28.790165 29.90781 29.828518 -0.8132222
0001c0 8e d6 ea 41 60 a9 ee 41 25 5e eb 41 1c a7 ed 41
       29.354763 29.832703 29.420969 29.706596
0001d0 1a eb e6 41 79 45 eb 41 58 d2 e2 41 c7 eb ed 41
       28.864796 29.408922 28.352707 29.740126
0001e0 e6 75 e8 41 63 87 e5 41 00 d3 ec 41 d2 5c ed 41
       29.057568 28.691107 29.603027 29.670322
0001f0 98 a6 ec 41 b2 9b ee 41 cf 9e ec 41 e0 b3 ee 41
       29.581345 29.826023 29.577543 29.83783

fc2.weight f4 [128, 128]
000000 23 91 e1 41 3e 9d e1 41 b8 47 e3 41 0e ad e2 41
       28.195868 28.201778 28.410019 28.3345
000010 01 50 e3 41 bd ac e2 41 1c 68 e3 41 84 7e e2 41
       28.414064 28.334345 28.425835 28.311775
000020 12 67 05 c0 11 95 e3 41 56 1c e2 41 47 a4 e4 41
       -2.084416 28.447786 28.263836 28.580214
000030 91 ad e3 41 e3 99 e3 41 ab 06 e3 41 a2 ec df 41
       28.45975 28.45014 28.378256 27.990543
000040 10 94 e1 41 24 ba e2 41 f0 5c e3 41 25 bc e1 41
       28.197296 28.340889 28.42038 28.216867
000050 56 3b e3 41 17 41 e1 41 f9 2b e1 41 5b bb df 41
       28.403973 28.156782 28.146471 27.966482
000060 dd 90 e3 41 d6 a1 e3 41 a0 a6 de 41 4e 2b e3 41
       28.445734 28.454021 27.83136 28.396145
000070 10 c5 e3 41 12 4f e3 41 fb ce e3 41 5e 6e 0f c0
       28.471222 28.413609 28.476065 -2.2411113
000080 ed 4e e4 41 fb 10 e3 41 61 85 e2 41 71 78 e2 41
       28.538538 28.383291 28.315126 28.30881
000090 fe d7 e1 41 17 a1 e3 41 cb e0 e3 41 19 ac e3 41
       28.230465 28.453657 28.484762 28.459032
0000a0 72 e5 df 41 9e 97 e3 41 54 6c e3 41 32 df e1 41
       27.987034 28.449032 28.427895 28.233982
0000b0 28 af dc 41 d1 fe e2 41 63 43 1c 40 16 ca 3a 40
       27.585526 28.374422 2.441613 2.9185843
0000c0 9d d2 e3 41 e0 2f e3 41 46 b5 e4 41 26 7c e1 41
       28.477839 28.398376 28.588512 28.18562
0000d0 06 cb df 41 84 2e e2 41 93 55 e3 41 92 be e3 41
       27.974133 28.272713 28.416784 28.468052
0000e0 f0 2d e3 41 0c 8a e4 41 82 74 e3 41 57 a1 e4 41
       28.39743 28.567406 28.431889 28.57878
0000f0 e8 92 f9 bf 29 df e1 41 c9 ea e2 41 53 27 e4 41
       -1.9497957 28.233965 28.364641 28.519201
000100 23 55 e3 41 d0 5e e2 41 2d 67 e3 41 ef cc e3 41
       28.41657 28.296295 28.425379 28.475065
000110 18 2e e3 41 2a 03 e1 41 23 7b e4 41 27 89 e4 41
       28.397507 28.126545 28.560125 28.566969
000120 d0 43 e1 41 f1 a9 e1 41 1f 8f e3 41 e8 94 e2 41
       28.158112 28.20798 28.444883 28.322708
000130 fc 47 e2 41 a0 02 e3 41 35 b8 dd 41 19 c3 e2 41
       28.285149 28.376282 27.714945 28.345263
000140 73 54 e2 41 61 fe e2 41 35 2a e4 41 d0 8c e0 41
       28.291235 28.374208 28.520609 28.068756
000150 11 4e e3 41 34 11 e4 41 26 ca e3 41 3c 8d e4 41
       28.413118 28.5084 28.473705 28.568962
000160 98 00 e3 41 1e 3f df 41 d5 94 dc 41 68 3a e4 41
       28.37529 27.905819 27.572672 28.528519
000170 66 df e1 41 47 66 e3 41 c3 83 e3 41 e7 f1 e3 41
       28.234081 28.42494 28.439337 28.493116
000180 ff 2c de 41 5d cb e2 41 36 b1 e3 41 44 4f de 41
       27.77197 28.349298 28.461529 27.788704
000190 99 9c e2 41 c9 93 e0 41 01 07 e4 41 20 5a e3 41
       28.326464 28.07216 28.50342 28.419006
0001a0 8b 56 db 41 87 b8 e1 41 8b 1c e4 41 d7 7b e3 41
       27.417257 28.215101 28.513937 28.435469
0001b0 48 bc dd 41 b8 bd e3 41 f0 74 e3 41 e6 29 e9 bf
       27.716934 28.467636 28.432098 -1.8215911
0001c0 a9 96 e2 41 71 a2 e3 41 cc 68 e2 41 07 37 e3 41
       28.323565 28.454317 28.30117 28.401869
0001d0 42 84 dd 41 35 5f e3 41 31 49 db 41 d3 bc e2 41
       27.689579 28.421488 27.410738 28.3422
0001e0 52 97 e1 41 d6 86 dd 41 e6 27 e3 41 a0 e3 e3 41
       28.198887 27.690838 28.394482 28.486145
0001f0 75 75 e4 41 64 95 e3 41 e5 f8 e2 41 02 20 e3 41
       28.557352 28.447945 28.37153 28.390629
000200 17 06 e1 41 e5 68 e1 41 26 d2 e2 41 74 bf e1 41
       28.127974 28.176218 28.352612 28.218483
000210 97 5c e3 41 3e 0a e2 41 1d 94 e2 41 0b 7d e3 41
       28.42021 28.255001 28.32232 28.436056
000220 27 f4 02 c0 a0 2f e3 41 d1 bb e1 41 fb ad e4 41
       -2.0461519 28.398254 28.216707 28.584951
000230 37 e9 e2 41 bc 92 e3 41 d7 d5 e3 41 6e 63 de 41
       28.363874 28.446648 28.479414 27.79855
000240 eb 3a e1 41 af 64 e2 41 ce 6e e3 41 e1 71 e2 41
       28.153769 28.299162 28.429104 28.305605
000250 28 83 e3 41 b6 ff e0 41 4b 33 e1 41 6e f6 df 41
       28.439041 28.124859 28.150045 27.995327
000260 a9 fa e3 41 25 ae e3 41 a3 10 df 41 72 88 e1 41
       28.497393 28.460032 27.883123 28.191624
000270 01 69 e3 41 18 ea e3 41 99 86 e2 41 50 33 14 c0
       28.426271 28.489304 28.315722 -2.3156319
000280 16 fb e3 41 2a bb e2 41 3a 39 e2 41 44 da e1 41
       28.4976 28.341389 28.277943 28.231575
000290 a5 a9 e2 41 98 51 e3 41 54 22 e3 41 42 d2 e2 41
       28.332834 28.41484 28.391762 28.352665
0002a0 cc f1 df 41 87 56 e3 41 79 21 e4 41 b8 82 e2 41
       27.993065 28.41725 28.516344 28.313828
0002b0 59 79 dc 41 de e4 e3 41 f7 b1 24 40 44 62 3f 40
       27.559252 28.486752 2.573362 2.9903727
0002c0 59 17 e3 41 f5 ae e2 41 35 df e3 41 0a c5 e1 41
       28.3864 28.335428 28.483988 28.22121
0002d0 ba a7 e0 41 ec 9e e1 41 88 13 e3 41 ac cb e3 41
       28.081898 28.202599 28.384537 28.47445
0002e0 ad 07 e4 41 1e c2 e3 41 74 14 e3 41 ad 80 e4 41
       28.503748 28.469784 28.384987 28.56283
0002f0 44 c0 05 c0 c2 0a e2 41 f6 19 e3 41 69 0f e4 41
       -2.08986 28.255253 28.387676 28.507524
000300 41 cc e1 41 6b 2c e2 41 c4 89 e2 41 95 ba e3 41
       28.224733 28.271688 28.317268 28.466105
000310 a8 b2 e3 41 3e 08 e2 41 9c 85 e4 41 22 f2 e3 41
       28.462234 28.254025 28.565239 28.493229
000320 4c 81 e0 41 ad 38 e1 41 86 6b e2 41 07 d8 e1 41
       28.063133 28.152674 28.302502 28.230482
000330 e8 2d e2 41 be 9d e3 41 40 66 dc 41 34 3b e3 41
       28.272415 28.452023 27.549927 28.403908
000340 40 84 e1 41 0b b0 e3 41 cd fd e2 41 f0 e6 df 41
       28.189575 28.460958 28.373926 27.987762
000350 9a 69 e4 41 18 90 e3 41 cd 4c e3 41 6b 94 e4 41
       28.551563 28.445358 28.4125 28.57247
000360 6b 61 e3 41 83 a2 df 41 8a fd db 41 d7 ea e2 41
       28.422567 27.954351 27.498798 28.364668
000370 44 69 e2 41 32 f5 e1 41 80 bb e2 41 54 2f e4 41
       28.3014 28.244724 28.341553 28.52311
000380 2a c2 de 41 87 ac e2 41 df c8 e3 41 fc c3 df 41
       27.844807 28.334242 28.473082 27.970695
000390 3f 61 e3 41 d6 1a e0 41 d0 fd e2 41 9c fa e2 41
       28.422483 28.013103 28.373932 28.372368
0003a0 1a ec da 41 ea a4 e2 41 41 fc e4 41 51 45 e3 41
       27.365284 28.330524 28.62317 28.408846
0003b0 0a dc dd 41 68 43 e4 41 3d 15 e3 41 5c da e1 bf
       27.73244 28.532913 28.38537 -1.7644763
0003c0 d8 45 e2 41 d5 07 e4 41 19 2c e3 41 c9 9f e3 41
       28.284103 28.503824 28.396532 28.45302
0003d0 eb 03 de 41 45 1d e3 41 5d 33 da 41 e2 f6 e2 41
       27.751913 28.389292 27.27508 28.370548
0003e0 97 94 e0 41 7c 4c de 41 5e b4 e2 41 b7 ec e3 41
       28.072554 27.787346 28.33807 28.490583
0003f0 5a 3b e3 41 66 b9 e2 41 57 4a e2 41 cf 00 e3 41
       28.40398 28.340527 28.286299 28.375395

fc2.bias f4 [128]
000000 64 b3 e2 41 88 a7 e2 41 f8 2e e3 41 19 6f e2 41
       28.337593 28.331802 28.397934 28.304247
000010 00 e6 be 41 e3 2a e3 41 49 6b e2 41 d8 47 09 bc
       23.862305 28.39594 28.302385 -0.008378945
000020 1e af a4 bd b0 7a e2 41 7c 96 e1 41 00 51 e1 41
       -0.080412135 28.309906 28.198479 28.16455
000030 71 9f e2 41 09 b0 b6 bd 53 00 e2 41 e7 88 e2 41
       28.327852 -0.08920295 28.250158 28.316847
000040 b5 c7 e2 41 30 60 a5 bd b1 0e 00 3c 3d b4 e2 41
       28.347513 -0.08074987 0.007816003 28.338007
000050 d3 98 e6 bd 25 35 d7 41 78 87 00 be 9d 67 a0 41
       -0.11259618 26.90095 -0.12551677 20.050592
000060 0d d4 e2 41 62 9c e1 41 6f 39 e3 41 bc a2 e2 41
       28.35354 28.201359 28.403044 28.32946
000070 90 48 e1 41 b4 d6 15 bd d1 c9 e1 41 00 96 91 3a
       28.16043 -0.03658171 28.223543 0.0011107326
000080 4e a2 e1 41 18 90 e1 41 d7 15 e3 41 90 fe e2 41
       28.20425 28.195358 28.385664 28.374298
000090 91 24 e1 41 3b a4 e2 41 c2 36 83 bd 09 d9 68 bd
       28.142855 28.33019 -0.064069286 -0.056847606
0000a0 4e 06 e2 41 c4 e8 e1 41 69 7a e2 41 70 4d e3 41
       28.253078 28.238655 28.30977 28.412811
0000b0 a7 99 8a bd 49 aa fd bd 16 35 92 bd 53 47 a9 3b
       -0.06767588 -0.12385995 -0.071390316 0.005165973
0000c0 24 1c a3 bd fe 6d c4 bd 9a 12 e3 41 8e 3e e2 41
       -0.07964352 -0.09591292 28.384083 28.280544
0000d0 6d 2a e2 41 70 24 e2 41 b8 69 38 3b f1 d6 de 41
       28.270716 28.267792 0.0028139185 27.854952
0000e0 28 18 75 bd 66 91 e2 41 28 01 b8 bd 40 60 e2 41
       -0.05983749 28.320995 -0.089845955 28.296997
0000f0 28 04 74 bd ed 97 00 be 3f 45 e3 41 71 d9 e2 41
       -0.059574276 -0.12557955 28.408812 28.356173
000100 64 18 df bd 2b 84 e2 41 27 34 ad bd a0 66 21 ba
       -0.10893324 28.314535 -0.08457213 -0.0006156955
000110 cb 89 84 3c 35 54 17 be 62 49 82 41 89 b9 15 3d
       0.016178986 -0.14778216 16.285831 0.036553893
000120 14 a5 88 bc 9d c9 e2 41 0b 0a 09 bd 74 62 e2 41
       -0.016680278 28.348444 -0.033456843 28.298073
000130 88 b5 e2 41 04 47 e2 41 96 28 e3 41 15 bb e2 41
       28.338638 28.284676 28.394817 28.341349
000140 cd b4 e2 41 33 dc e1 41 93 a0 e2 41 84 42 e1 41
       28.338282 28.23252 28.328405 28.157478
000150 b6 97 a8 bd c2 89 c0 bd d3 3c e2 41 eb f4 e1 41
       -0.082320616 -0.09401275 28.2797 28.244589
000160 9d c4 d0 bd bc 4d 34 bd f0 c5 cd bd 5e 02 24 bc
       -0.10193751 -0.044019446 -0.10047519 -0.01001033
000170 45 11 e3 41 b8 82 e1 41 83 22 e2 41 0d 6a 9c bd
       28.383432 28.188828 28.266851 -0.07637415
000180 a1 46 e2 41 54 38 66 41 46 7c e3 41 4e 64 e3 41
       28.284487 14.388752 28.43568 28.423977
000190 ad 43 2b 3d 8c 3a e1 41 14 17 e2 41 36 9e e2 41
       0.041812588 28.153587 28.261269 28.327251
0001a0 c2 a0 92 bd 9f de 72 3d b4 11 ff bc 24 6e e2 41
       -0.07159568 0.05929434 -0.031136371 28.30378
0001b0 2a 8a e2 41 a1 87 05 be 4d e4 e1 41 15 d2 f2 bc
       28.317463 -0.1304002 28.236475 -0.02964119
0001c0 25 1a a3 40 97 ae e3 41 dd 96 e2 41 5d 55 e2 41
       5.0969415 28.460249 28.323664 28.291681
0001d0 bf 92 e2 41 8c 7d e2 41 05 a2 90 bd 40 05 c4 bd
       28.321653 28.311302 -0.07062153 -0.09571314
0001e0 8b 86 e2 41 f2 1b 08 bd 5b 55 06 3c 8d 5f e2 41
       28.315695 -0.033229776 0.008199061 28.296656
0001f0 ce 7e e2 41 39 dc 05 3d f9 49 e2 41 e5 f1 e1 41
       28.311916 0.032680724 28.28612 28.243113

fc3.weight f4 [9, 128]
000000 64 3e 14 41 a1 a8 13 41 49 26 14 41 86 26 12 41
       9.265232 9.228669 9.259347 9.134405
000010 77 8b f7 40 db 53 14 41 7c 34 13 41 27 0c 23 bd
       7.7357745 9.270473 9.200314 -0.03980651
000020 7b af b2 3c 36 b1 14 41 db 9c 13 41 0b c6 11 41
       0.021812191 9.293264 9.225795 9.11085
000030 1f 14 12 41 0e f7 ac bd a6 29 13 41 f6 b7 13 41
       9.129912 -0.084455594 9.197668 9.232412
000040 08 83 14 41 78 33 1f bd 9a b3 93 bd 63 fe 13 41
       9.28199 -0.038867444 -0.07211991 9.249606
000050 f6 84 b9 3b 2e 46 0f 41 27 04 a5 bc b2 af cb 40
       0.005661602 8.954634 -0.020143582 6.365197
000060 9e c7 14 41 39 18 13 41 94 ec 13 41 2a bb 13 41
       9.298735 9.193414 9.245258 9.233194
000070 86 08 13 41 58 db a6 3d 14 f2 12 41 d7 fc 85 3d
       9.189581 0.08147305 9.184101 0.06542366
000080 23 03 14 41 87 74 14 41 77 e1 13 41 52 c1 14 41
       9.250766 9.278449 9.242545 9.297197
000090 05 54 13 41 db 34 13 41 03 04 54 bc 44 bf 98 3d
       9.208013 9.200404 -0.01294041 0.07458356
0000a0 9f 1a 13 41 ea ef 12 41 32 42 13 41 f7 a1 12 41
       9.193999 9.183573 9.203661 9.164542
0000b0 c9 06 19 3d cc 5c d0 bb 8d 1d be 3c 72 9f 47 bd
       0.037359986 -0.0063587185 0.02320745 -0.048736043
0000c0 db b8 99 3c d3 20 5a bd 4f c5 12 41 de 34 14 41
       0.018764904 -0.05325396 9.173171 9.262907
0000d0 89 72 13 41 7a 66 13 41 38 6b 1b bd 5f 70 0e 41
       9.215463 9.212519 -0.03794405 8.902434
0000e0 52 b1 30 bd b3 04 14 41 df 0e 98 bc af 89 14 41
       -0.043137856 9.251147 -0.018561779 9.283614
0000f0 b4 1a 44 3c ca 22 9e 3d a3 13 14 41 dc 65 14 41
       0.011969257 0.07721479 9.254794 9.274868
000100 27 ca 0b 3d ee 1f 14 41 27 cf 73 bc ce 9c 31 3d
       0.034128334 9.257795 -0.014880932 0.04336243
000110 b1 81 0e bd 93 42 33 bc e3 6e af 40 89 45 b5 bc
       -0.034791652 -0.0109411655 5.482286 -0.022127884
000120 b7 d6 7a 3c 54 a1 14 41 ce 94 5d 3d ef 01 14 41
       0.015309981 9.289387 0.05409699 9.250472
000130 8a ce 13 41 d7 b2 13 41 ce 89 12 41 0a 91 14 41
       9.237925 9.231162 9.158644 9.28541
000140 09 a0 14 41 07 f6 12 41 9b 39 14 41 a2 fd 11 41
       9.289071 9.185065 9.264064 9.124422
000150 29 f9 e8 3c 1d 1e 23 bd a1 04 13 41 e9 e5 13 41
       0.028439121 -0.03982364 9.18863 9.24363
000160 5b f6 49 3d b9 16 b7 3c ca cc ab bc 1a bd 88 bd
       0.04930721 0.022349702 -0.020971674 -0.06676693
000170 50 f6 12 41 33 a4 12 41 70 5b 13 41 45 3e cf 3a
       9.185135 9.165088 9.209824 0.0015811404
000180 16 9c 14 41 fb 1a 9b 40 44 5e 14 41 da 8a 14 41
       9.288107 4.8470435 9.273014 9.283899
000190 ab 12 85 bd 84 f2 12 41 05 db 13 41 4d 50 12 41
       -0.06497701 9.184208 9.240972 9.144605
0001a0 2b 18 6b bd 26 b1 95 3d 10 43 cf bb 99 1a 12 41
       -0.057396095 0.07309179 -0.006325133 9.131494
0001b0 2f 56 12 41 73 3c 37 bc 2e 83 13 41 e8 7f c9 3c
       9.146041 -0.011183846 9.219526 0.024597123
0001c0 c5 0c 05 40 26 4a 14 41 1d d4 13 41 9f 43 14 41
       2.0789044 9.268103 9.239285 9.266509
0001d0 c4 8f 12 41 f2 ec 12 41 a0 84 5a bb 88 4f 1f bd
       9.160099 9.182848 -0.003334321 -0.038894206
0001e0 3e df 13 41 c1 f8 d8 bc 68 f3 47 bd 3a 8c 13 41
       9.2420025 -0.026485803 -0.048816115 9.221735
0001f0 8c 55 13 41 bf cf 92 bd 9c 16 12 41 45 19 14 41
       9.208385 -0.07168531 9.13052 9.256169
000200 1b 94 0d 41 cf 3d 0e 41 96 7b 0d 41 04 02 0e 41
       8.848659 8.89009 8.842672 8.875492
000210 d2 17 f5 40 ae 6a 0e 41 1a f0 0c 41 07 2d d1 bb
       7.6591578 8.901045 8.808619 -0.0063835415
000220 db b9 6d bd 06 f3 0c 41 bc db 0c 41 0e 45 0e 41
       -0.058038574 8.809332 8.803646 8.891859
000230 02 4e 0e 41 3c d1 c1 bc cb bc 0e 41 f8 24 0d 41
       8.894045 -0.023659341 8.921092 8.821526
000240 d7 70 0e 41 20 53 d2 3c ec 05 e6 3c c1 ce 0d 41
       8.902549 0.025674403 0.028078996 8.862977
000250 d9 eb 9b bd d2 56 05 41 47 bc 3a 3d 7e 39 c9 40
       -0.07613344 8.333696 0.04558971 6.288268
000260 3f ca 0c 41 75 4a 0d 41 aa e6 0c 41 a9 07 0e 41
       8.7993765 8.830678 8.806314 8.87687
000270 ae 2c 0c 41 a3 f4 83 bd e8 bf 0e 41 30 7d a4 3c
       8.760908 -0.06443145 8.921852 0.020079225
000280 b5 00 0d 41 ba ab 0c 41 38 04 0d 41 3b 0e 0c 41
       8.812673 8.791925 8.81353 8.753474
000290 9d 18 0d 41 74 46 0c 41 23 f0 50 bd 7c 2a db 3c
       8.818509 8.7672 -0.051010262 0.026753657
0002a0 57 f6 0e 41 41 22 0d 41 e6 83 0d 41 22 c4 0e 41
       8.935142 8.820863 8.844702 8.922884
0002b0 87 5e 1b bd 7b e6 9f 3d c0 08 be 3d c1 f6 e2 3a
       -0.037931945 0.078076325 0.09279013 0.001731597
0002c0 fa 92 8f 3d e0 b5 6f 3a ac 81 0c 41 85 5b 0c 41
       0.070104554 0.0009144228 8.781658 8.772344
0002d0 72 03 0c 41 cc 10 0d 41 3f d1 5c bd e6 88 0c 41
       8.750841 8.816601 -0.05391049 8.783422
0002e0 77 f3 82 3b 45 f4 0e 41 88 7f 19 3b 16 d9 0e 41
       0.0039963084 8.934636 0.0023421962 8.9279995
0002f0 4c 8e 04 3d 1e c8 0a bd 86 d5 0d 41 49 8f 0e 41
       0.032362267 -0.033882253 8.86463 8.909982
000300 dd c8 50 3a 8e b1 0e 41 b5 a2 bd 3d 1b 39 ea bc
       0.0007964501 8.918348 0.092595495 -0.028591683
000310 03 ff 10 bd 48 65 86 bb 65 83 a5 40 63 c5 97 bc
       -0.035399448 -0.004101429 5.1722894 -0.018526739
000320 ad 32 14 bc f3 82 0e 41 69 86 46 3c d2 9e 0d 41
       -0.009045285 8.90697 0.012117007 8.8512745
000330 e2 3d 0d 41 38 b9 0d 41 4d b6 0e 41 db b2 0c 41
       8.827608 8.857719 8.919507 8.793666
000340 f6 ff 0e 41 c5 a5 0e 41 4a a9 0d 41 05 ea 0e 41
       8.93749 8.915471 8.85383 8.932134
000350 b5 86 8f 3d e2 1b 0e 3d 7d 3f 0d 41 01 af 0d 41
       0.07008115 0.03469456 8.828 8.855226
000360 49 a6 8d bd eb 90 d4 3d b9 84 04 bd 8b 79 af 3c
       -0.06916482 0.103792034 -0.032353137 0.02142026
000370 48 79 0e 41 91 75 0c 41 52 c6 0c 41 8b f5 4b 3d
       8.90461 8.778703 8.798418 0.049794715
000380 10 fb 0c 41 25 23 91 40 cf 67 0d 41 31 64 0e 41
       8.811295 4.53554 8.837844 8.899461
000390 90 5b 52 3d 50 4c 0e 41 ac 2c 0e 41 59 33 0e 41
       0.051356852 8.893631 8.885906 8.887536
0003a0 a2 82 2a 3c 61 f3 39 bd 34 0b 8b bd 37 2b 0d 41
       0.010407122 -0.04539812 -0.06789246 8.8230505
0003b0 07 e3 0d 41 dd 47 1b 3d 53 83 0d 41 7c 26 a0 3d
       8.867927 0.03791033 8.844562 0.0781984
0003c0 f8 66 db 3f f8 83 0e 41 17 15 0e 41 b0 35 0e 41
       1.7140799 8.907219 8.880149 8.888107
0003d0 5f 73 0e 41 76 a3 0d 41 47 be 0d 3c 74 13 10 3c
       8.903167 8.852407 0.008651323 0.0087937005
0003e0 91 f6 0d 41 c0 74 06 3d 81 b7 ea 38 2d 41 0e 41
       8.872697 0.032826185 0.0001119217 8.890912
0003f0 8b 06 0e 41 5c 53 ed 3c ef e1 0d 41 65 83 0e 41
       8.876597 0.028970413 8.86766 8.907079

fc3.bias f4 [9]
000000 34 71 08 41 11 53 03 41 fc d2 60 41 e2 a1 05 41
       8.5276375 8.20778 14.05151 8.352022
000010 01 94 06 41 68 ca 04 41 c9 15 08 41 a8 be 03 41
       8.411134 8.299416 8.505319 8.234047
000020 7c 0a 07 41
       8.44006
